RealData/model_coef/cb_loss.pth (torch_old, 19558 bytes, 2 tensors)

weight f4 [9, 512]
0.1363404 -0.042127885 0.13803591 -0.080117136 -0.32084718 -0.1950817 0.044259757 0.07377722
0.0203433 -0.4780494 -0.03421217 -0.013602403 0.046748318 0.042382907 0.029947866 -0.73605025
-0.016484687 -0.62999666 0.008065069 -0.29772118 -0.15377693 0.0705004 0.009436587 -0.13915539
0.06604379 -0.0011341784 -0.65071005 0.23852934 0.08958677 0.01802446 0.12443752 -0.014244901
0.035652444 0.1600615 0.017814595 0.0430488 0.24654879 0.02110399 -0.018371899 0.019368367
0.0100685 -0.38087228 -0.08141159 -0.12225629 -0.37926534 -0.009881853 0.42814946 0.063452594
-0.019446496 0.42993978 -0.23921385 -0.027860628 -0.006894366 0.011219876 -0.015081884 -0.27693337
0.5252243 0.034603 -0.17462143 -0.64940435 0.043461736 0.002995636 0.114602 -0.2144209
0.033636935 0.040918507 -0.22440067 0.053073373 -0.010678932 0.080394864 0.008870642 -0.008731913
0.0542487 0.07552203 -0.032177202 -0.028860008 0.13405354 0.25867933 0.03798257 -0.02876464
0.028357979 -0.04360021 0.49891952 0.07424716 0.037725884 0.045334853 -0.7814074 0.03712688
-0.122504756 0.7588601 0.035163842 0.0059994864 0.06284209 0.06922212 0.0025971772 0.23153135
0.04050165 -0.031125247 0.03548306 -0.22028878 0.12804005 0.10105305 0.09939251 0.05562138
-0.07336445 -0.0076779444 0.14233847 -0.0173128 0.30037802 -0.28947204 0.04278424 -0.03743242
0.11740361 -0.100139126 -0.049063332 0.05715125 0.09554741 0.16578226 -0.26831406 -0.4699424
0.05055035 0.13164681 0.123960204 0.4487937 -0.7426734 0.18513368 -0.02541042 0.0076215435
-0.00060601375 0.16676548 0.010366383 0.060406383 -0.031228267 0.25427258 -0.029150749 0.09212071
0.14832136 -0.03279228 -0.24536116 -0.031950884 0.036824286 0.0031280536 0.03409477 -0.05723613
-0.023055946 0.0213306 0.17528306 0.031573903 -0.85869735 0.113121994 -0.30950654 0.03971715
0.10575857 0.16441832 -0.097576626 0.17649956 -0.39833066 0.05910715 -0.025955133 -0.132282
0.3643475 0.024875298 -0.047889553 0.5121868 -0.24965447 0.045383748 0.5599396 -0.0005721212
-0.31533566 0.065307856 0.10378218 0.06586959 -0.21034773 0.24479519 -0.21471642 -0.09815204
-0.23224278 0.07349895 -0.04376072 0.053595986 -0.6689426 -0.05660329 0.039707374 0.035491154
0.030529326 0.33145264 0.3629064 -0.11142909 -0.001352619 -0.0035318509 0.16041882 0.024616694
-0.36239484 0.12242258 0.6201622 0.008588118 -0.1518296 -0.015964577 -0.016492095 0.31527278
-0.021786839 -0.007366011 0.013058344 0.052853137 -0.016505523 0.026481677 0.31794807 0.101515114
-0.012962066 -0.0020934844 0.06582269 0.00039998782 0.062834814 0.07284109 0.22314021 -0.10394493
0.0055277515 0.0046611405 0.12623732 -0.005674096 -0.035428356 0.025529185 0.1906311 0.10911045
0.08296229 0.38251993 0.27512562 0.19070119 -0.02495506 0.4748195 -0.024116091 -0.1911188
0.31998506 -0.18548593 0.039315313 0.018360564 -0.19613107 0.03258768 -0.05500129 -0.31808734
0.024733558 0.10349194 0.009875435 0.14891563 -0.2956225 0.25375205 0.118628 -0.088826396
0.45114094 -0.26503685 -0.13651983 -0.0076459376 0.053795464 -0.15854119 0.08791153 0.12682338
00000000: d19c 0b3e 4a8e 2cbd 4959 0d3e 7414 a4bd
00000010: 1546 a4be 7fc3 47be b849 353d 8318 973d
00000020: fea6 a63c e4c2 f4be 0f22 0cbd 9ddc 5ebc
00000030: 2a7b 3f3d b399 2d3d 3a55 f53c ca6d 3cbf
00000040: e50a 87bc 7647 21bf 5a23 043c e96e 98be
00000050: b377 1dbe 8462 903d ea9b 1a3c c07e 0ebe
00000060: f741 873d b6a8 94ba ef94 26bf 0941 743e
00000070: 4579 b73d 08a8 933c 19d9 fe3d 7263 69bc
00000080: 4c08 123d 29e7 233e eaef 913c f053 303d
00000090: 4977 7c3e 46e2 ac3c aa80 96bc 69aa 9e3c
000000a0: 5af6 243c b101 c3be 1fbb a6bd 8161 fabd
000000b0: 112f c2be 7fe7 21bc 6836 db3e 6ff3 813d
000000c0: 424e 9fbc 1121 dc3e 7af4 74be f93b e4bc
000000d0: 22ea e1bb 92d3 373c 021a 77bc 36ca 8dbe
000000e0: 1a75 063f e0bb 0d3d f6cf 32be 5d3f 26bf
000000f0: ef04 323d 6f52 443b 74b4 ea3d 2791 5bbe
00000100: e2c6 093d 2a9a 273d 4ac9 65be 7763 593d
00000110: b0f6 2ebc 10a6 a43d 2b56 113c 4c10 0fbc
00000120: e333 5e3d 4bab 9a3d 3ecc 03bd d36b ecbc
00000130: 5545 093e 9e71 843e 9c93 1b3d d3a3 ebbc
00000140: fe4e e83c 2296 32bd 6172 ff3e e50e 983d
00000150: 7586 1a3d 0ab1 393d 510a 48bf 5b12 183d
00000160: c6e3 fabd a844 423f f607 103d 5797 c43b
00000170: 5bb3 803d 54c4 8d3d 6735 2a3b 8e16 6d3e
00000180: 0fe5 253d 60fa febc af56 113d 6293 61be
00000190: ee1c 033e e7f4 ce3d 4d8e cb3d 3fd3 633d
000001a0: 1a40 96bd 4497 fbbb 2dc1 113e 93d3 8dbc
000001b0: 26cb 993e ae35 94be 873e 2f3d bd52 19bd
000001c0: 4e71 f03d be15 cdbd a2f6 48bd 6e17 6a3d
000001d0: 5cae c33d d3c2 293e 7660 89be 4a9c f0be
000001e0: e20d 4f3d 6cce 063e d9de fd3d 4ac8 e53e
000001f0: d81f 3ebf af93 3d3e 8329 d0bc 24be f93b
00000200: e5dc 1eba 92c4 2a3e c3d7 293c af6c 773d
00000210: 6cd2 ffbc 0430 823e 8dcd eebc c8a9 bc3d
00000220: 8ee1 173e 3351 06bd f53f 7bbe eede 02bd
00000230: 10d5 163d 0800 4d3b f5a6 0b3d 6f70 6abd
00000240: d3df bcbc 83bd ae3c 677d 333e a353 013d
00000250: 97d3 5bbf 81ac e73d a477 9ebe 73ae 223d
00000260: f397 d83d 475d 283e 41d6 c7bd 4dbc 343e
00000270: fff1 cbbe 571a 723d dc9f d4bc ef74 07be
00000280: c18b ba3e 48c7 cb3c d627 44bd ad1e 033f
00000290: 6ca5 7fbe 4fe4 393d 3458 0f3f 67fa 15ba
000002a0: ad73 a1be 20c0 853d c08b d43d a3e6 863d
000002b0: 6565 57be 97ab 7a3e 9fde 5bbe f003 c9bd
000002c0: 0dd1 6dbe 9e86 963d 713e 33bd 7787 5b3d
000002d0: d23f 2bbf dad8 67bd 33a4 223d 2c5f 113d
000002e0: a318 fa3c 29b4 a93e dece b93e ef34 e4bd
000002f0: 5d4a b1ba a076 67bb d544 243e f3a8 c93c
00000300: d18b b9be b1b8 fa3d f3c2 1e3f 2db5 0c3c
00000310: 3879 1bbe 25c8 82bc 6e1a 87bc 6f6b a13e
00000320: 507a b2bc 945e f1bb aaf2 553c 887c 583d
00000330: 9736 87bc 1af0 d83c 17ca a23e 28e7 cf3d
00000340: d85e 54bc d732 09bb 0cce 863d 75b5 d139
00000350: 8aaf 803d b62d 953d de7e 643e 14e1 d4bd
00000360: 2422 b53b 7bbc 983b 5b44 013e c4ed b9bb
00000370: 531d 11bd 9522 d13c cd34 433e 4d75 df3d
00000380: 22e8 a93d a7d9 c33e 44dd 8c3e 2c47 433e
00000390: 8e6e ccbc 8b1b f33e 1c8f c5bc a6b4 43be
000003a0: 15d5 a33e 06f0 3dbe 1809 213d e568 963c
000003b0: 95d6 48be a97a 053d 0849 61bd 58dc a2be
000003c0: 089e ca3c 95f3 d33d 94cc 213c 577d 183e
000003d0: d55b 97be caeb 813e 3df3 f23d 9dea b5bd
000003e0: f2fb e63e e9b2 87be dbcb 0bbe c68a fabb
000003f0: a258 5c3d 9f58 22be f60a b43d fddd 013e

bias f4 [9]
0.98514354 -0.016757775 -0.22234578 0.017645722 -0.17753656 0.047147837 -0.36239877 -0.093819134
-0.15636487
00000000: 5e32 7c3f 9a47 89bc 9dae 63be c38d 903c
00000010: 25cc 35be 171e 413d 558c b9be 3f24 c0bd
00000020: 1d1e 20be
