RealData/model_coef/cs_loss.pth (torch_old, 19558 bytes, 2 tensors)

weight f4 [9, 512]
0.074695826 0.030889317 0.07181368 -0.036241483 -0.29966155 -0.15024897 -0.051913433 0.030534014
-0.007758949 -0.30865192 0.017860318 0.050374977 0.023339748 -0.0067353123 0.014465108 -0.44915858
-0.008193786 -0.32203406 0.017400667 -0.14420556 -0.10085584 0.024198256 -0.00016666525 -0.053517256
0.05459514 -0.018336313 -0.48300278 0.106326774 0.040601786 0.022805711 0.018259978 0.041787956
0.03848482 0.098980986 -0.031043956 0.034318 0.117930174 0.022243915 0.0074146544 -0.0042347535
0.033231847 -0.2623092 -0.007449116 -0.099677496 -0.13915898 -0.01806392 0.2074693 0.07483143
-0.0033357036 0.23990887 -0.18174547 -0.029435044 0.031338986 -0.028690925 -0.06473565 -0.17773658
0.40643033 0.067357555 -0.16374305 -0.3636072 0.0025081153 0.0071457624 0.027874863 -0.15785073
-0.03753232 -0.026071364 -0.12341255 0.047270585 0.020833418 0.060050447 -0.027396498 -0.062270887
0.04284008 -0.0017203878 -0.012869638 -0.02834895 0.059008688 0.1778101 -0.0030622834 -0.020857623
-0.007663226 -0.009962356 0.329777 0.044497468 -0.029437302 0.048880078 -0.5342473 0.04011774
-0.09315603 0.4676595 -0.032626 -0.034399197 0.0058443486 -0.017725917 0.0065536764 0.12754442
0.030595941 -0.038599055 0.03522345 -0.10540473 0.07785665 0.061196603 0.076499134 0.02058309
-0.12579158 -0.036744002 0.047415737 0.02389409 0.17859921 -0.1727781 0.065759465 -0.024771454
-0.037910644 -0.024001516 -0.06388746 0.07336047 0.042139336 0.087629646 -0.12871538 -0.24173509
0.04652443 0.03703509 0.0050008185 0.23096062 -0.47385094 0.12304387 0.01792648 -0.03748389
-0.05697454 0.089509465 -0.0062054535 0.024558336 -0.033898927 0.14552593 -0.013382112 -0.0084805675
0.044560775 0.0042716013 -0.0874186 -0.033857528 0.012158725 -0.029432679 0.02005838 -0.07333417
0.026868178 0.018963741 0.051247735 0.033174694 -0.43992135 0.009427352 -0.165277 0.0106524015
0.09404631 0.06887696 -0.059447598 0.038744546 -0.32918626 0.062490296 0.019712303 -0.035283834
0.1912649 -0.031104103 -0.054179918 0.27441067 -0.20776658 0.0024933335 0.34592512 0.026918417
-0.25816193 -0.017480077 0.03247722 0.007613391 -0.14057234 0.106130935 -0.10439441 -0.10563988
-0.17647746 -0.0019781971 0.018276056 0.036750026 -0.3941988 -0.049369622 -0.0025870379 -0.03832668
-0.0015885514 0.168882 0.17459844 -0.1519394 0.034642063 0.043389585 0.079391114 -0.031607233
-0.19263718 0.063369684 0.41211212 0.03138473 -0.1226118 -0.0041342545 0.029214755 0.1492582
-0.060503718 0.00960154 0.0009850729 0.0112453485 -0.03265773 0.0077268193 0.14514829 0.07191802
-0.023596784 0.045334466 0.034668677 0.037786044 0.05961477 0.04690359 0.12107171 -0.036612492
-0.025071716 0.018352129 0.058417734 0.013124448 -0.0742115 -0.020366943 0.079368435 0.022295335
0.068238206 0.20377925 0.17351733 0.1365259 -0.00306544 0.32038108 0.045641948 -0.10783553
0.226788 -0.141435 0.008551484 0.025560003 -0.12284563 0.07599408 -0.07488732 -0.27005148
-0.049254753 0.06435514 0.014272277 0.07950082 -0.16932914 0.16664742 0.05913967 -0.13555247
0.3022213 -0.11901085 -0.11208887 -0.024016436 -0.030154899 -0.17833261 0.099043146 0.07063135
00000000: 20fa 983d 980b fd3c 0d13 933d f371 14bd
00000010: 3d6d 99be deda 19be 2ea3 54bd 7822 fa3c
00000020: c83e febb a007 9ebe cd4f 923c fe55 4e3d
00000030: 0033 bf3c e5b3 dcbb 0fff 6c3c 1df8 e5be
00000040: 3b3f 06bc a6e1 a4be d88b 8e3c 9faa 13be
00000050: 828d cebd 6c3b c63c ddc2 2eb9 e934 5bbd
00000060: 279f 5f3d 0936 96bc 244c f7be dac1 d93d
00000070: 0f4e 263d 0bd3 ba3c f395 953c d929 2b3d
00000080: 42a2 1d3d 8bb6 ca3d e54f febc 0891 0c3d
00000090: 6085 f13d df38 b63c a1f6 f23b b0c3 8abb
000000a0: 1e1e 083d 644d 86be b717 f4bb b723 ccbd
000000b0: b17f 0ebe c9fa 93bc d572 543e 3941 993d
000000c0: d29b 5abb acaa 753e 7c1b 3abe c321 f1bc
000000d0: 4f5d 003d 3b09 ebbc 2094 84bd 9400 36be
000000e0: a317 d03e c2f2 893d 42ac 27be b92a babe
000000f0: 315f 243b 0027 ea3b d359 e43c 9fa3 21be
00000100: 7dbb 19bd 9d93 d5bc b8bf fcbd cd9e 413d
00000110: d8aa aa3c 75f7 753d 9f6e e0bc c20f 7fbd
00000120: 1479 2f3d a37e e1ba 2ddb 52bc 0f3c e8bc
00000130: 18b3 713d da13 363e 97b0 48bb 9bdd aabc
00000140: cd1b fbbb 2639 23bc 88d8 a83e fa42 363d
00000150: 7f26 f1bc 7a36 483d 6ec4 08bf 8052 243d
00000160: 97c8 bebd 1171 ef3e d7a2 05bd 2ce6 0cbd
00000170: f381 bf3b f135 91bc 39c0 d63b 019b 023e
00000180: 57a4 fa3c 0b1a 1ebd 7746 103d 6fde d7bd
00000190: 4f73 9f3d 4aa9 7a3d 94ab 9c3d de9d a83c
000001a0: 82cf 00be e180 16bd 0137 423d 8abd c33c
000001b0: b6e2 363e beec 30be e6ac 863d 81ed cabc
000001c0: 3148 1bbd d49e c4bc 6ed7 82bd 043e 963d
000001d0: 4c9a 2c3d 2c77 b33d f7cd 03be 6789 77be
000001e0: 6790 3e3d 1bb2 173d e8dd a33b f180 6c3e
000001f0: 979c f2be 6dfe fb3d 8eda 923c b588 19bd
00000200: 235e 69bd bd50 b73d 1e57 cbbb 902e c93c
00000210: 9ad9 0abd c004 153e a540 5bbc 14f2 0abc
00000220: 5c85 363d caf8 8b3b 8608 b3bd 31ae 0abd
00000230: 6435 473c cd1c f1bc 7951 a43c 3a30 96bd
00000240: a71a dc3c d959 9b3c 25e9 513d 30e2 073d
00000250: 5f3d e1be 2e75 1a3c 603e 29be 6987 2e3c
00000260: 5a9b c03d 5d0f 8d3d 537f 73bd 9ab2 1e3d
00000270: 1a8b a8be d3f5 7f3d b27b a13c c885 10bd
00000280: f2da 433e 08ce febc c3eb 5dbd 8e7f 8c3e
00000290: c3c0 54be 3267 233b 191d b13e 0384 dc3c
000002a0: cd2d 84be 6132 8fbc d506 053d c179 f93b
000002b0: 32f2 0fbe 2d5b d93d bdcc d5bd b959 d8bd
000002c0: 82b6 34be a4a4 01bb abb7 953c 3287 163d
000002d0: 6dd4 c9be cd37 4abd 4b8b 29bb 70fc 1cbd
000002e0: f136 d0ba 67ef 2c3e efc9 323e 0196 1bbe
000002f0: d6e4 0d3d 47b9 313d cf97 a23d 9676 01bd
00000300: ae42 45be f7c7 813d 5c00 d33e 468d 003d
00000310: e51b fbbd a478 87bb c853 ef3c 24d7 183e
00000320: bfd2 77bd c74f 1d3c 901d 813a 693e 383c
00000330: 1dc4 05bd 4231 fd3b c1a1 143e c149 933d
00000340: 0b4e c1bc a2b0 393d be00 0e3d 8ac5 1a3d
00000350: 9e2e 743d fb1d 403d 72f4 f73d fbf6 15bd
00000360: 3363 cdbc 3457 963c 6f47 6f3d ed07 573c
00000370: 33fc 97bd 93d8 a6bc eb8b a23d b5a4 b63c
00000380: 79c0 8b3d 82ab 503e 87ae 313e 72cd 0b3e
00000390: 8de5 48bb fd08 a43e 0df3 3a3d e0d8 dcbd
000003a0: 1d3b 683e 56d4 10be 861b 0c3c 3663 d13c
000003b0: 7d96 fbbd c9a2 9b3d 865e 99bd 3044 8abe
000003c0: 5abf 49bd a1cc 833d 45d6 693c 53d1 a23d
000003d0: 9e64 2dbe 9fa5 2a3e 703c 723d 44ce 0abe
000003e0: c0bc 9a3e f6bb f3bd d98e e5bd 1ebe c4bc
000003f0: 6807 f7bc d39c 36be 22d7 ca3d 2ba7 903d

bias f4 [9]
0.6485842 -0.032427464 -0.14282955 0.09269087 -0.13936567 0.074363925 -0.24269561 -0.1004127
-0.08374752
00000000: 9d09 263f a9d2 04bd e941 12be b6d4 bd3d
00000010: e0b5 0ebe 1d4c 983d 3385 78be 2ca5 cdbd
00000020: d283 abbd
