RealData/model_coef/focal_loss.pth (torch_old, 19558 bytes, 2 tensors)

weight f4 [9, 512]
0	0x3dc26b8a	0.09493168
1	0xbcc4573f	-0.023967383
2	0x3dc14249	0.09436471
3	0x3c828585	0.015932808
4	0xbde91785	-0.11381439
5	0xbdfb2d4c	-0.12264499
6	0x3d2d6863	0.04233588
7	0x3d1f8759	0.038947437
8	0x3d8e911e	0.06961273
9	0xbeaadb98	-0.33370662
10	0xbcb02e37	-0.021506412
11	0x3ccb3098	0.024803445
12	0x3d96cd07	0.073633246
13	0x3c9e0183	0.01928783
14	0xbc37e3ff	-0.011223792
15	0xbee00a7a	-0.43757993
16	0xbd0c74f6	-0.03429123
17	0xbf2ee88d	-0.68323594
18	0x3c805fda	0.015670706
19	0xbe0723dd	-0.13197275
20	0xbdb32cdf	-0.08748793
21	0x3d61de83	0.055143844
22	0x3d6a187b	0.057152253
23	0xbde49f19	-0.11163158
24	0x3cd1be1c	0.025603347
25	0xbb7dfc07	-0.0038754956
26	0xbf11ff5f	-0.5703029
27	0x3e13b62e	0.14424965
28	0x3bc0bdcd	0.005882001
29	0xbbdd3736	-0.0067509664
30	0x3de64b97	0.11244886
31	0x3c86389d	0.016384417
32	0x3ccdd6c1	0.025126817
33	0x3ddb0d96	0.10695951
34	0xbbff9c0c	-0.0078005847
35	0x3d3fc36c	0.04681723
36	0x3e1d2737	0.1534699
37	0xbbdffe0d	-0.006835705
38	0xbb10fc1b	-0.0022122923
39	0x3c357e35	0.011077453
40	0x3d3bde79	0.045866463
41	0xbe9f2407	-0.31082174
42	0xbe15ee13	-0.146416
43	0xbd06f589	-0.032949004
44	0xbeb8c97e	-0.36091226
45	0xbd934f03	-0.07192805
46	0x3e867ae5	0.26265636
47	0x3d85d157	0.06534069
48	0x3b25447b	0.002521782
49	0x3ea08efb	0.31359085
50	0xbd8dcf07	-0.06924253
51	0xbd9a097f	-0.075213425
52	0x3c037b10	0.008024946
53	0xb98f7359	-0.00027361026
54	0xbd49ee5a	-0.049299575
55	0xbdfdc15d	-0.12390397
56	0x3eb178f1	0.34662583
57	0x3dc23665	0.09483031
58	0xbe17dd1a	-0.14830437
59	0xbf00a1b3	-0.50246733
60	0x3d80c14d	0.06286869
61	0xbd512c2f	-0.051067527
62	0x3de42f1e	0.111417994
63	0xbe20379c	-0.15646213
64	0xbb5a480f	-0.003330711
65	0x3b5f8e7e	0.0034112032
66	0xbdbe3d1b	-0.09288999
67	0x3dc087af	0.094008796
68	0x3b9db984	0.004813375
69	0x3d4311af	0.047624286
70	0x3d39755d	0.045277942
71	0x3d4964ac	0.049168274
72	0x3dac0a9b	0.0840046
73	0x3d7692ff	0.06019878
74	0x3cab0b67	0.02087946
75	0xbcb33ae4	-0.021878667
76	0x3d1d75be	0.038442366
77	0x3e3a6786	0.18203554
78	0xbc9859c7	-0.018597497
79	0xbcd54318	-0.02603297
80	0xbcb7c0da	-0.022430826
81	0xbd9e3c83	-0.077263854
82	0x3eaeefeb	0.34167418
83	0x3daa6c17	0.08321398
84	0x3d1ef3f4	0.03880687
85	0x3cfb9e69	0.030715184
86	0xbf00ff5b	-0.5038964
87	0x3d176d1d	0.036969293
88	0xbde174d4	-0.11008611
89	0x3ee776aa	0.4520772
90	0x3d0b6aaa	0.03403727
91	0x3d11d0af	0.035599407
92	0x3b5558a9	0.0032554066
93	0x3d447b93	0.047969412
94	0xbbb3ed17	-0.00549091
95	0x3e3a827b	0.18213837
96	0x3c9b1353	0.018930113
97	0xbd9b9a95	-0.075978436
98	0xbd1f0f2d	-0.038832832
99	0xbdeacdb8	-0.11465019
100	0x3dbb4907	0.09144788
101	0x3d84faba	0.06493135
102	0x3e14efa7	0.14544545
103	0x3d06d6cb	0.032919686
104	0x3d3a666c	0.045507833
105	0x3c95fa05	0.018307695
106	0x3dab200e	0.08355723
107	0x3c8a01b6	0.016846519
108	0x3dc97279	0.09836287
109	0xbe19be09	-0.15013899
110	0x3e05ea7e	0.13077733
111	0xbbc435c8	-0.0059878565
112	0x3e14e20a	0.14539352
113	0xbe6882e0	-0.22706175
114	0xbd8789ad	-0.066180564
115	0x3dc55409	0.09635169
116	0x3da514b6	0.08060591
117	0x3c8cabe4	0.017171808
118	0xbe0d5192	-0.13800648
119	0xbed3378f	-0.41253325
120	0x3d448b55	0.04798444
121	0x3db73052	0.08944763
122	0x3d6c73ce	0.057727627
123	0x3e9768a1	0.29572013
124	0xbeb574b8	-0.35440612
125	0x3e0002aa	0.12501016
126	0xbd439641	-0.047750715
127	0xbd18b264	-0.0372795
128	0xbaa91a30	-0.0012901481
129	0x3e45f8c6	0.19333181
130	0x3c08ecb6	0.008357218
131	0x3c60e30e	0.013726009
132	0x3c1442c4	0.009049121
133	0x3e090e1f	0.13384293
134	0xbbb3889b	-0.005478931
135	0x3ca75443	0.020425921
136	0x3df82183	0.12115767
137	0x3c80573f	0.015666602
138	0xbe468aac	-0.19388837
139	0x3aa0353b	0.0012222895
140	0xbd107b02	-0.03527356
141	0x3d52699f	0.05137026
142	0x3bad291d	0.005284442
143	0x3cfb6177	0.030686123
144	0x3d15f5b0	0.03661126
145	0xbd1def55	-0.038558323
146	0x3dfd0bdc	0.123557776
147	0x3cb24304	0.021760471
148	0xbf1a3f27	-0.6025261
149	0x3dd07e99	0.101803966
150	0xbe0bed67	-0.1366478
151	0xbc0da1d3	-0.008644539
152	0x3d414141	0.04718137
153	0x3e14eb7e	0.14542958
154	0x3cc05ddc	0.023482256
155	0xbc9d171f	-0.019176064
156	0xbdec1e8e	-0.11529265
157	0x3daf65e0	0.08564353
158	0xbc0003c1	-0.007813395
159	0xbde53f0a	-0.11193664
160	0x3e4b6a7c	0.1986484
161	0x3c81004e	0.015747216
162	0x3d365862	0.044517882
163	0x3ea031a9	0.31287888
164	0xbe55c9e0	-0.2087779
165	0x3c5cbea6	0.0134731885
166	0x3ea71407	0.32632467
167	0x3d0df3fe	0.034656517
168	0xbe37541b	-0.17903177
169	0x3d477cf3	0.048703145
170	0x3e12c1fc	0.14331812
171	0x3dc82205	0.09772114
172	0xbd78ce47	-0.060743596
173	0x3df04972	0.117327586
174	0xbdb4b0dc	-0.08822796
175	0xbe001e32	-0.12511519
176	0xbe18afb4	-0.14910775
177	0x3d73caff	0.059519764
178	0x3b80a9f4	0.00392651
179	0xbc0b8ef6	-0.008517971
180	0xbf0fd4a8	-0.5618386
181	0xbc9dde14	-0.019270934
182	0x3d2f1f17	0.04275426
183	0x3ccb3cdd	0.024809295
184	0x3d1ad147	0.03779724
185	0x3e65429e	0.22388694
186	0x3e643c45	0.22288616
187	0xbd3d0503	-0.046147358
188	0xbcb30d3c	-0.021856897
189	0x3d3b543f	0.04573464
190	0x3dfd4714	0.12367073
191	0xbd2307da	-0.03980241
192	0xbe1824aa	-0.14857736
193	0x3daa308d	0.083100416
194	0x3ef6f5c6	0.48234385
195	0x3c058cb9	0.008151227
196	0xbd37c159	-0.044862125
197	0xbb79cf39	-0.00381179
198	0xbc2a42b0	-0.010391876
199	0x3e689f10	0.22716928
200	0xbd711a59	-0.058863018
201	0x3d5a82dd	0.053347457
202	0x3d04cc73	0.03242154
203	0x3d4634ad	0.04839008
204	0x3c752b5d	0.014963952
205	0xbd886ceb	-0.066613995
206	0x3e75fc0d	0.24021931
207	0x3da1660b	0.07880791
208	0x3d6bfeac	0.05761592
209	0x3d8b8f1a	0.06814404
210	0x3dcf0c4c	0.10109767
211	0x3d2048bd	0.03913187
212	0x3d9e3742	0.07725383
213	0x3d3644df	0.044499274
214	0x3dfb37bf	0.12266492
215	0xbc636626	-0.013879335
216	0xbbac614f	-0.0052606235
217	0xbb4f8f05	-0.003167094
218	0x3d150101	0.03637791
219	0x3d2149a8	0.039376885
220	0xbd2c5d55	-0.042081196
221	0xbcd5b13c	-0.026085488
222	0x3e0854a9	0.13313545
223	0x3e85ce5f	0.2613401
224	0x3cb3c009	0.021942155
225	0x3e922a2b	0.28547797
226	0x3ea2dbaf	0.3180823
227	0x3ce64fd2	0.028114233
228	0x3b9eda55	0.0048478046
229	0x3e0b7e73	0.13622455
230	0xbc9351d2	-0.01798335
231	0xbda6a441	-0.08136798
232	0x3e8e426f	0.2778506
233	0xbe401eed	-0.18761797
234	0x3c21ab25	0.009867464
235	0xbd1c0e8b	-0.038099807
236	0xbe498445	-0.19679363
237	0x3d4d389c	0.050102815
238	0x3d890af6	0.06691544
239	0xbe614300	-0.21998215
240	0x3e0a163c	0.13485044
241	0x3de6ca9d	0.11269114
242	0x3d545d54	0.051846817
243	0x3dd3b354	0.103369385
244	0xbe73ba8e	-0.23801634
245	0x3e4c20cb	0.19934385
246	0x3d92d919	0.07170314
247	0x3dab05ef	0.08350741
248	0x3e8342c6	0.25636882
249	0xbe3c69a7	-0.18399678
250	0xbe526304	-0.20545584
251	0xbce378a5	-0.027767489
252	0x3d7c9255	0.06166299
253	0x3c1860c4	0.0093004145
254	0xbdc847c8	-0.09779316
255	0x3e05ad57	0.13054405

bias f4 [9]
0	0x3f0cadd1	0.5495272
1	0xbf1a64c9	-0.60310036
2	0xbf1168a8	-0.5680032
3	0xbf007d9e	-0.50191677
4	0xbf179b6b	-0.59221524
5	0xbf0450bb	-0.51685685
6	0xbf1f5934	-0.6224549
7	0xbf1453d0	-0.5794039
8	0xbf1b4b9e	-0.6066226
