RealData/model_coef/rds.pth (torch_old, 19558 bytes, 2 tensors)

weight f4 [9, 512]
0.11978788 0.04346636 0.09676596 -0.07940905 -0.34214106 -0.29872036 0.030613594 0.13334957
0.07303004 -0.45945343 -0.0007122327 0.032726493 0.107807845 -0.015056418 -0.0013705704 -0.7913127
-0.007243498 -0.58624977 0.028350336 -0.2964864 -0.14326283 0.12191169 0.034577683 -0.07866698
0.057591833 -0.0044847033 -0.6085276 0.26926175 0.043766666 -0.011654975 0.020488894 0.0005042287
0.042490978 0.16658941 0.046477366 0.012627506 0.18017894 0.032779526 0.028556215 0.03879127
0.03303957 -0.42262757 0.010517141 -0.105784535 -0.2533351 -0.01834483 0.32401872 0.09700031
0.04704968 0.4218078 -0.2355981 -0.06295415 0.039680228 0.003534417 0.00024718553 -0.093760915
0.5552841 0.12968038 -0.22551468 -0.5673166 0.026320286 -0.03894984 0.14573073 -0.2635987
0.028355451 0.05235994 -0.21088342 0.07048757 0.034588754 0.12009562 0.012686158 0.024128636
0.09614785 0.06467993 0.008257964 0.03117166 0.1150529 0.25869825 0.031531416 0.04127048
0.0017855775 -0.08555963 0.4307616 0.10113352 0.020266056 0.018487139 -0.73637754 0.048280604
-0.13917789 0.7566218 0.03185064 -0.02396642 0.08528989 0.016424049 0.024263486 0.17621931
0.047451716 -0.03395463 0.030175103 -0.16778901 0.11694663 0.16371012 0.11870042 0.037194196
-0.09202716 0.042598005 0.060609944 0.01068863 0.34573406 -0.22974011 0.0391355 -0.040218346
0.029925022 0.0472536 -0.053284597 0.07031248 0.10042418 0.23529325 -0.20846026 -0.482659
0.075309396 0.14746113 0.052908078 0.36501548 -0.79136556 0.21530071 -0.01905424 0.01268979
0.00091294764 0.1559496 -0.0038658387 0.030292168 -0.050213814 0.20439203 0.030265955 0.0606989
0.12517545 0.029878534 -0.09715204 0.08050989 0.007208769 0.013365577 -0.0029731537 -0.10868668
0.054553956 0.03038161 0.19109519 -0.011242919 -0.7147244 0.07813536 -0.27263752 0.020333024
0.13682045 0.1362511 -0.10289213 0.19255787 -0.4339967 0.086639635 0.010845695 -0.1321332
0.28801182 -0.016333362 0.03476809 0.48600957 -0.30206105 0.06495408 0.48127097 -0.024733692
-0.299452 0.0016896373 0.11955442 0.07501309 -0.13330303 0.26980644 -0.21807398 -0.05681058
-0.18862356 0.06364779 -0.0068962756 0.068714015 -0.78502786 0.030507332 0.047270406 0.012376142
0.007844109 0.3037003 0.37432873 -0.1611444 0.021815367 -0.021820236 0.19552413 0.025083508
-0.35857385 0.09885926 0.5956001 -0.035341274 -0.06761649 -0.008159967 0.009219866 0.27321106
-0.058632243 0.030947018 0.028705623 -0.0131819565 0.017848162 -0.05273948 0.2678131 0.055844206
0.015526042 0.04968926 0.11529963 0.017878963 0.027172964 0.10090807 0.2335002 -0.0015002757
0.0011079409 0.04869314 0.1359856 -0.019430319 -0.047674987 -0.0032119565 0.13558851 0.05784859
0.07580446 0.37031722 0.2593436 0.15296184 0.03903084 0.4340895 0.012610698 -0.16235167
0.32630563 -0.24254355 0.035898123 0.1276505 -0.29484302 0.15102042 -0.059689205 -0.38183787
-0.03634952 0.16194691 0.040125 0.093952216 -0.2274846 0.2629155 0.078212485 -0.13703299
0.47330612 -0.17074278 -0.14069061 -0.022615748 0.027272576 -0.19336936 0.26220125 0.11990677
00000000: 5953 f53d c809 323d 3b2d c63d 36a1 a2bd
00000010: 1d2d afbe e0f1 98be 5cc9 fa3c ca8c 083e
00000020: c690 953d 7b3d ebbe 21b5 3aba 370c 063d
00000030: 5cca dc3d 32af 76bc b6a4 b3ba 7893 4abf
00000040: de5a edbb 7714 16bf f73e e83c 11cd 97be
00000050: 7eb3 12be d6ac f93d 54a1 0d3d 271c a1bd
00000060: 6ae5 6b3d 6bf4 92bb 77c8 1bbf addc 893e
00000070: ad44 333d 82f4 3ebc 53d8 a73c 372e 043a
00000080: 050b 2e3d 6a96 2a3e 0d5f 3e3d 99e3 4e3c
00000090: d480 383e d343 063d b9ee e93c 98e3 1e3d
000000a0: 8054 073d a462 d8be 1650 2c3c 90a5 d8bd
000000b0: 23b5 81be e647 96bc c8e5 a53e 19a8 c63d
000000c0: 2ab7 403d 31f7 d73e a140 71be 1bee 80bd
000000d0: bc87 223d ada1 673b ae98 8139 b905 c0bd
000000e0: 1927 0e3f efca 043e 52ed 66be a93b 11bf
000000f0: a49d d73c de89 1fbd 703a 153e 69f6 86be
00000100: b149 e83c 6077 563d d3f1 57be c95b 903d
00000110: f0ac 0d3d b1f4 f53d 9ad9 4f3c 6ba9 c53c
00000120: 2ae9 c43d e976 843d 694c 073c b65b ff3c
00000130: dba0 eb3d 1974 843e 1627 013d 3c0b 293d
00000140: 0a0a ea3a e339 afbd c98c dc3e 171f cf3d
00000150: 0005 a63c 5772 973c 3d83 3cbf e2c1 453d
00000160: a684 0ebe f7b1 413f d175 023d 3a55 c4bc
00000170: 77ac ae3d ba8b 863c 38c4 c63c d672 343e
00000180: bb5c 423d 0314 0bbd c731 f73c e2d0 2bbe
00000190: b781 ef3d a0a3 273e 3519 f33d f158 183d
000001a0: bc78 bcbd 3f7b 2e3d 2242 783d 5d1f 2f3c
000001b0: 0e04 b13e fe40 6bbe 8c4c 203d febb 24bd
000001c0: 5225 f53c fe8c 413d f340 5abd fdff 8f3d
000001d0: 31ab cd3d b7f0 703e 9b76 55be 151f f7be
000001e0: d03b 9a3d 0d00 173e 24b6 583d 4fe3 ba3e
000001f0: ef96 4abf ca77 5c3e a317 9cbc d6e8 4f3c
00000200: e152 6f3a 40b1 1f3e 035a 7dbb 4827 f83c
00000210: 00ad 4dbd 254c 513e 4ff0 f73c 699f 783d
00000220: fe2d 003e d4c3 f43c a6f7 c6bd 5fe2 a43d
00000230: 8a37 ec3b 4bfb 5a3c 3ed9 42bb 1f97 debd
00000240: f873 5f3d dbe2 f83c 75ae 433e 3834 38bc
00000250: 2ef8 36bf 6e05 a03d 2597 8bbe 7191 a63c
00000260: a91a 0c3e 6985 0b3e 1cb9 d2bd e42d 453e
00000270: d134 debe 1f70 b13d 24b2 313c ed4d 07be
00000280: 4976 933e 8bcd 85bc fc68 0e3d 3fd6 f83e
00000290: bfa7 9abe a506 853d 2669 f63e 509e cabc
000002a0: c651 99be d276 dd3a f3d8 f43d 77a0 993d
000002b0: 9780 08be 1224 8a3e c94e 5fbe 36b2 68bd
000002c0: 8926 41be c659 823d 27fa e1bb efb9 8c3d
000002d0: 96f7 48bf 83ea f93c 9d9e 413d 4dc5 4a3c
000002e0: 9484 003c 9b7e 9b3e 04a8 bf3e 0a03 25be
000002f0: 24b6 b23c 5ac0 b2bc 7a37 483e ee7b cd3c
00000300: fe96 b7be b976 ca3d 4079 183f 03c2 10bd
00000310: 847a 8abd 62b1 05bc ec0e 173c 52e2 8b3e
00000320: 5d28 70bd 9a84 fd3c 0e28 eb3c 22f9 57bc
00000330: 4f36 923c 5a05 58bd cc1e 893e e5bc 643d
00000340: f160 7e3c f786 4b3d 3622 ec3d e776 923c
00000350: d699 de3c e4a8 ce3d ad1a 6f3e e6a4 c4ba
00000360: 5438 913a 7572 473d cf3f 0b3e 552c 9fbc
00000370: d946 43bd b07f 52bb b7d7 0a3e a5f2 6c3d
00000380: 5e3f 9b3d 389a bd3e afc8 843e 07a2 1c3e
00000390: cdde 1f3d fb40 de3e 1a9d 4e3c 843f 26be
000003a0: 8811 a73e 565d 78be e909 133d d0b6 023e
000003b0: aaf5 96be 19a5 1a3e ab7c 74bd 4180 c3be
000003c0: 3ce3 14bd 69d5 253e 1d5a 243d 056a c03d
000003d0: b9f1 68be dc9c 863e de2d a03d 6052 0cbe
000003e0: 2e55 f23e 32d7 2ebe 3311 10be a944 b9bc
000003f0: bd6a df3c 9e02 46be 3e3f 863e ae91 f53d

bias f4 [9]
1.256511 -0.12147672 -0.18757284 -0.05955303 -0.22088313 -0.14265291 -0.27660385 -0.12825795
-0.103559986
00000000: 5ad5 a03f c9c8 f8bd 1813 40be e1ed 73bd
00000010: 302f 62be 9b13 12be 059f 8dbe 0d56 03be
00000020: 4217 d4bd
